…
[2025-03-15 11:29:50,397 INFO] Get special vocabs from Transforms: {'src': [], 'tgt': []}.
[2025-03-15 11:29:50,398 INFO] The first 10 tokens of the vocabs are:['<unk>', '<blank>', '<s>', '</s>', '|', 'J', '1H', '2H', 'm', 's']
[2025-03-15 11:29:50,398 INFO] The decoder start token is: <s>
[2025-03-15 11:29:50,398 INFO] Building model...
[2025-03-15 11:29:51,332 INFO] Switching model to float32 for amp/apex_amp
[2025-03-15 11:29:51,332 INFO] Non quantized layer compute is fp32
[2025-03-15 11:29:51,832 INFO] NMTModel(
  (encoder): TransformerEncoder(
    (embeddings): Embeddings(
      (make_embedding): Sequential(
        (emb_luts): Elementwise(
          (0): Embedding(1104, 32, padding_idx=1)
        )
        (pe): PositionalEncoding()
      )
      (dropout): Dropout(p=0.3, inplace=False)
    )
    (transformer): ModuleList(
      (0-1): 2 x TransformerEncoderLayer(
        (self_attn): MultiHeadedAttention(
          (linear_keys): Linear(in_features=32, out_features=32, bias=False)
          (linear_values): Linear(in_features=32, out_features=32, bias=False)
          (linear_query): Linear(in_features=32, out_features=32, bias=False)
          (softmax): Softmax(dim=-1)
          (dropout): Dropout(p=0.2, inplace=False)
          (final_linear): Linear(in_features=32, out_features=32, bias=False)
        )
        (feed_forward): PositionwiseFeedForward(
          (w_1): Linear(in_features=32, out_features=32, bias=False)
          (w_2): Linear(in_features=32, out_features=32, bias=False)
          (layer_norm): LayerNorm((32,), eps=1e-06, elementwise_affine=True)
          (dropout_1): Dropout(p=0.3, inplace=False)
          (dropout_2): Dropout(p=0.3, inplace=False)
        )
        (layer_norm): LayerNorm((32,), eps=1e-06, elementwise_affine=True)
        (dropout): Dropout(p=0.3, inplace=False)
      )
    )
    (layer_norm): LayerNorm((32,), eps=1e-06, elementwise_affine=True)
  )
  (decoder): TransformerDecoder(
    (embeddings): Embeddings(
      (make_embedding): Sequential(
        (emb_luts): Elementwise(
          (0): Embedding(40, 32, padding_idx=1)
        )
        (pe): PositionalEncoding()
      )
      (dropout): Dropout(p=0.3, inplace=False)
    )
    (layer_norm): LayerNorm((32,), eps=1e-06, elementwise_affine=True)
    (transformer_layers): ModuleList(
      (0-1): 2 x TransformerDecoderLayer(
        (self_attn): MultiHeadedAttention(
          (linear_keys): Linear(in_features=32, out_features=32, bias=False)
          (linear_values): Linear(in_features=32, out_features=32, bias=False)
          (linear_query): Linear(in_features=32, out_features=32, bias=False)
          (softmax): Softmax(dim=-1)
          (dropout): Dropout(p=0.2, inplace=False)
          (final_linear): Linear(in_features=32, out_features=32, bias=False)
        )
        (feed_forward): PositionwiseFeedForward(
          (w_1): Linear(in_features=32, out_features=32, bias=False)
          (w_2): Linear(in_features=32, out_features=32, bias=False)
          (layer_norm): LayerNorm((32,), eps=1e-06, elementwise_affine=True)
          (dropout_1): Dropout(p=0.3, inplace=False)
          (dropout_2): Dropout(p=0.3, inplace=False)
        )
        (layer_norm_1): LayerNorm((32,), eps=1e-06, elementwise_affine=True)
        (dropout): Dropout(p=0.3, inplace=False)
        (context_attn): MultiHeadedAttention(
          (linear_keys): Linear(in_features=32, out_features=32, bias=False)
          (linear_values): Linear(in_features=32, out_features=32, bias=False)
          (linear_query): Linear(in_features=32, out_features=32, bias=False)
          (softmax): Softmax(dim=-1)
          (dropout): Dropout(p=0.2, inplace=False)
          (final_linear): Linear(in_features=32, out_features=32, bias=False)
        )
        (layer_norm_2): LayerNorm((32,), eps=1e-06, elementwise_affine=True)
      )
    )
  )
  (generator): Linear(in_features=32, out_features=40, bias=True)
)
[2025-03-15 11:29:51,833 INFO] encoder: 47936
[2025-03-15 11:29:51,833 INFO] decoder: 23528
[2025-03-15 11:29:51,833 INFO] * number of parameters: 71464
[2025-03-15 11:29:51,834 INFO] Trainable parameters = {'torch.float32': 71464, 'torch.float16': 0, 'torch.uint8': 0, 'torch.int8': 0}
[2025-03-15 11:29:51,834 INFO] Non trainable parameters = {'torch.float32': 0, 'torch.float16': 0, 'torch.uint8': 0, 'torch.int8': 0}
…
